model.pkl (torch, 261237 bytes, 7 tensors)

W1 f4 [784, 64]
000000 8e 4f be be 98 6d a9 3f bc 5c 3d 3f 89 70 88 3f
       -0.3717007 1.323657 0.73969626 1.0659343
000010 af 3e cb 3c 2b cf bd bd 1e 5b 60 be 1a 16 0b c0
       0.024810163 -0.0926803 -0.21909758 -2.173224
000020 7f 69 74 bf 67 ed 4d be 24 e7 d9 3e 99 e6 90 3e
       -0.95473474 -0.20110093 0.4255916 0.28300932
000030 8b 70 a7 3d 58 a7 37 bf 71 1b 0d 40 d4 6f 58 3f
       0.08175763 -0.7173972 2.2048 0.84545636
000040 00 d7 d3 be c6 5b da 3f 4d a7 48 3e 07 96 72 bd
       -0.4137497 1.7059257 0.1959507 -0.05922511
000050 92 c6 49 3f 2b 21 18 bf ba ea 98 3e e5 40 c6 bd
       0.7881862 -0.5942561 0.29866582 -0.096803464
000060 14 9e 6f be 63 7e 15 bf 19 ff 7c 3f 19 af 75 3f
       -0.23400146 -0.58395976 0.9882675 0.959703
000070 0c 27 82 bf 52 ac 54 be 70 79 ac bd 39 47 ae bf
       -1.0168166 -0.2076886 -0.084216 -1.3615485
000080 e9 21 48 3e d4 e7 3f 3f 87 29 5a 3f ed ae 4e bf
       0.19544186 0.74963117 0.85219616 -0.80735666
000090 82 8b 94 bf f9 d1 1f bf a3 1c 97 bf 95 c4 32 bf
       -1.1605074 -0.6242977 -1.1805614 -0.6983121
0000a0 a6 5b 94 3e fd b0 00 40 ec bd c2 3f 60 b8 01 bf
       0.28976172 2.0108025 1.521421 -0.5067196
0000b0 be 18 a6 3e 82 06 60 bd 0f 99 f1 bf 34 40 68 bd
       0.32440752 -0.054693706 -1.8874835 -0.056701854
0000c0 75 8b 7d 3f 5d 43 2b bf f8 c4 7e 3f 46 12 a4 3f
       0.9904092 -0.66899663 0.995193 1.2818077
0000d0 f0 8d fb 3e b1 67 3e bf 3f 9b a8 3e 01 78 01 be
       0.49131727 -0.7437697 0.32930943 -0.12643434
0000e0 b6 55 82 3f 02 ef b0 be c6 c0 9e bf 8c ed 26 3e
       1.0182407 -0.34557348 -1.240258 0.16301554
0000f0 46 03 bd be 5e 68 3a 3e 7d 20 07 40 66 ee ee 3f
       -0.3691656 0.18203875 2.111358 1.8666503
000100 bf 5f 04 3f 3c 5e d3 3d 92 33 0f bf e0 1a 9d 3e
       0.51708597 0.10320708 -0.55938065 0.30684566
000110 26 86 07 3f 6a e7 8d 3e 66 3c 61 3e 6b 77 de 3a
       0.5293907 0.27715617 0.21995696 0.0016972845
000120 86 bc 03 3f d8 e9 ae bd eb c5 0d 3e 38 2a 67 bf
       0.5145954 -0.08540696 0.13845031 -0.90298796
000130 7a 3b 87 3f 71 93 01 3f 39 8a c6 be 6a b5 1b c0
       1.0565026 0.506156 -0.3877733 -2.4329476
000140 40 e5 c0 bd af 20 05 c0 cb 78 5c bf 0e ba 0a 3f
       -0.09418726 -2.0801198 -0.86121815 0.54190147
000150 22 29 c1 bf 76 98 e5 3d d1 53 98 3e 71 e8 37 bf
       -1.5090678 0.1121072 0.29751447 -0.7183905
000160 36 fb 53 bf 5a 80 1e 3e 77 72 5f c0 23 ae 56 3d
       -0.8280519 0.1547865 -3.4913614 0.052412163
000170 81 0e 8d bd f1 5e 10 3e 3e 98 c2 bf 3e 56 3f 3e
       -0.06887532 0.14098717 -1.5202711 0.18685243
000180 43 cb 54 be 39 58 9e 3f e7 e7 8f bf cc 80 55 bf
       -0.20780663 1.2370673 -1.1242646 -0.83399653
000190 62 a5 c5 3c 76 81 15 3f 54 f3 70 3f 0e 1d d5 3f
       0.024126712 0.58400667 0.9412129 1.6649492
0001a0 68 cb 79 bf 8b 8a b3 bf c0 17 3a 3f 5f 00 03 bf
       -0.97576 -1.4026655 0.7269249 -0.5117244
0001b0 ba d2 b5 3f 3a 15 de be 24 40 35 3f a2 ae 95 3f
       1.4204934 -0.4337557 0.70800996 1.1693919
0001c0 cf b8 e3 be dc 4e c8 3e b3 77 25 3c 10 82 4e bf
       -0.44476935 0.39122665 0.010099339 -0.8066721
0001d0 71 15 48 bf 58 f0 34 bf 79 44 8d be c4 54 2a 3e
       -0.78157717 -0.70679235 -0.27591303 0.16633898
0001e0 ad d4 72 3f 7a 03 fb bc 2a 38 99 be 49 32 18 be
       0.9485577 -0.030641306 -0.29925662 -0.14862932
0001f0 9c ca ae 3e 1c c6 fe 3e 78 8d 13 bf 43 4d 8a bf
       0.34138954 0.4976052 -0.5763774 -1.0804828
000200 87 71 ce bc 59 d5 1c be 76 8c f5 3e f6 be 0e 40
       -0.025200618 -0.1531576 0.47958726 2.2304053
000210 57 3f 4d bf 86 5f 0d bf 54 92 c8 3f 7a 39 c6 3f
       -0.80174774 -0.5522388 1.5669656 1.548629
000220 8b c7 ff 3e dd f0 84 be 83 85 27 3f 4e 92 c3 bf
       0.49956927 -0.25965014 0.654381 -1.5279024
000230 11 28 7e 3e 0b ac 37 bf fd 7b 9f bf 19 7f 0c bf
       0.24819972 -0.7174689 -1.2459713 -0.54881436
000240 b9 9d 02 bf 7e 78 31 bf 40 63 84 3e f7 2c 0c 3f
       -0.51021916 -0.6932448 0.25856972 0.5475611
000250 65 bf 8c 3f 44 da 98 3f b3 75 99 bf a3 44 d3 3f
       1.0995909 1.1941609 -1.1989044 1.6505321
000260 1d d5 87 bf a2 eb 9d 3e 76 0d 93 bf d0 95 1d 3f
       -1.0611912 0.30843836 -1.1488483 0.6155672
000270 ec f4 06 3f 27 ef 19 3f 96 35 60 3f 26 27 2d bf
       0.5271747 0.6013054 0.87581766 -0.6763786
000280 c0 32 84 3e 9c 54 db be 3c 0b ac 3e c6 cd 28 bf
       0.2581997 -0.4283799 0.3360232 -0.65938985
000290 a6 66 23 3f a6 80 dd bf 02 33 0f 3f 59 7e e2 3f
       0.63828504 -1.7304885 0.55937207 1.7694808
0002a0 14 de 66 3f 65 0d 0d 3f 72 99 de 3f 89 c8 8d be
       0.90182614 0.55098563 1.7390578 -0.2769206
0002b0 30 71 e1 3f 65 df 1c c0 04 31 b5 bf 71 94 c0 be
       1.7612667 -2.451135 -1.4155583 -0.37613252
0002c0 b3 90 e5 bf b7 44 eb be 54 30 ea 3e 5c 5e 8b bf
       -1.7934784 -0.45950863 0.45739996 -1.0888171
0002d0 43 05 91 bc a3 77 5a 3f da e4 2f bf b4 45 94 3f
       -0.017702704 0.853388 -0.68708575 1.1583772
0002e0 ee 6b e0 3e 9b fb 8b bf 68 0b 8f 3f c1 64 ae be
       0.43832344 -1.0936159 1.1175356 -0.34061244
0002f0 5f 81 81 bf 51 54 87 3e 87 3d 8d 3f 51 9b f8 3f
       -1.0117606 0.26431516 1.1034402 1.9422399
000300 4d 56 05 3f a3 3c cf 3e ee 07 e2 bd e1 49 b2 bf
       0.5208481 0.4047595 -0.11036669 -1.3928796
000310 b7 aa ba be 20 6d a2 bf cb df c9 be 84 ad b3 3e
       -0.3645837 -1.2689552 -0.39428553 0.3509332
000320 1a af 68 3e 8d d7 fd bf e7 3e ad 3f 22 0a fb 3f
       0.22723046 -1.9831406 1.3534821 1.9612467
000330 de 93 69 3f e8 a1 92 3f e6 1b f9 bd 51 e9 63 bf
       0.9124125 1.145566 -0.12163524 -0.8902789
000340 de 0a 10 3e 37 39 53 bf 69 25 da bd 1f b7 8a bf
       0.14066646 -0.8250918 -0.10651667 -1.0837134
000350 77 d8 5d c0 62 01 cc bd 5f ab fb bf 45 5d b0 3e
       -3.466337 -0.09961201 -1.9661673 0.3444616
000360 35 72 ac bd 61 ce 84 3f 0c e8 c3 be 21 6d 9a 3e
       -0.08420221 1.0375482 -0.38262975 0.30161384
000370 5f e2 5e bf e5 a1 ae bf 40 b1 0a bf 40 9c c2 be
       -0.87064165 -1.3643156 -0.5417671 -0.38009834
000380 c8 c3 dc 3e 5f 4e d4 3f fb cf a1 3f 0d 0b c8 bf
       0.4311812 1.6586417 1.2641596 -1.5628372
000390 b4 b8 87 be 70 a5 59 bf 59 00 83 bf f3 6f 90 3f
       -0.26508105 -0.8501806 -1.0234481 1.1284164
0003a0 f3 d9 76 3e 97 87 fb bd c9 65 fc 3c c4 11 e6 bf
       0.24106579 -0.12281721 0.030810254 -1.7974172
0003b0 2b 02 db 3d 79 fe a7 be 87 19 f5 3f 2c 0a 63 be
       0.10693773 -0.32811335 1.9148415 -0.22171849
0003c0 ce 33 05 3f b0 fa d2 3f cf 5c 69 bf 74 b8 1b c0
       0.5203217 1.6482754 -0.9115724 -2.4331331
0003d0 c5 d3 59 3f 87 05 1f bd b4 97 9e 3f c3 ac a6 be
       0.8508876 -0.03882363 1.2390046 -0.32553682
0003e0 a8 5d 7e bf 66 59 eb be 9b 35 3f bf 64 e5 ec be
       -0.9936166 -0.45966643 -0.7469117 -0.4626876
0003f0 95 45 14 c0 34 a6 26 be 30 d2 81 3f 22 11 34 3f
       -2.316747 -0.16274339 1.0142269 0.7033864

b1 f4 [64]
000000 94 54 d7 be 3e 69 1b 3f 72 92 ee be 73 7d db be
       -0.42056715 0.6070746 -0.46596104 -0.42869148
000010 f0 c1 b6 be 9c b9 e7 3c 9b 5b 08 bf 1e 8c 80 be
       -0.35694838 0.028286748 -0.5326478 -0.251069
000020 1d e6 f5 be a9 a1 7d bf 90 3d 17 bf 7f e8 de be
       -0.48027125 -0.990748 -0.5907831 -0.43536755
000030 5f 3e e3 be 5f c9 f6 3e 2e e8 c7 be 2b c2 f9 be
       -0.44383523 0.4820051 -0.39044327 -0.4878095
000040 29 d5 27 bf 48 66 f4 3e d3 75 28 bf b2 af b2 3e
       -0.6555963 0.47734284 -0.65804785 0.3489967
000050 d2 09 97 be 99 5a 1d bf 71 e0 bb be 1a 44 94 be
       -0.2949968 -0.61466366 -0.36694673 -0.28958207
000060 cf 1c 0a bf 9e 49 e0 bd 90 4e 40 bd ae 44 38 bf
       -0.5395021 -0.10951541 -0.046949923 -0.71979797
000070 a0 bf 58 3e ae 1d 91 3e c4 be f7 be 9f a5 3a bf
       0.21166849 0.28342956 -0.4838773 -0.7290897
000080 93 04 8f 3e d0 d2 4a bf de fe a7 be 06 50 44 bf
       0.27933177 -0.79227924 -0.32811636 -0.76684606
000090 84 6c 44 3f 67 bc ec be d6 1b 00 bf 0d 05 14 bf
       0.7672808 -0.4623749 -0.50042474 -0.57820207
0000a0 5f 45 94 be 74 ac 13 3f 74 9b bd be a5 86 0f be
       -0.28959176 0.5768502 -0.37032664 -0.14016207
0000b0 a0 d3 3f be 20 9e c6 be 76 12 d3 3e 95 a0 6e be
       -0.18733072 -0.38792515 0.41225022 -0.23303445
0000c0 c4 f7 a2 bf 1f c3 0d bf fa 0b b5 be 79 4a 0c 3f
       -1.2731862 -0.55375856 -0.353607 0.54801136
0000d0 45 8a 95 be f2 2f 27 bf b9 e2 47 be ac b0 8a 3d
       -0.29207054 -0.65307534 -0.19520082 0.06771979
0000e0 ad d6 2a bf a4 44 e7 be 05 f2 d5 3e f4 09 b3 be
       -0.6673382 -0.45169556 0.4178621 -0.3496853
0000f0 8a a5 48 bf f5 1a 95 bf 6a 19 05 3d bf ae df be
       -0.7837759 -1.1648852 0.03249494 -0.43688008

W2 f4 [64, 10]
000000 0b 6f d0 be 82 35 29 3c 2c c3 91 be 51 da 23 3e
       -0.4070972 0.010327699 -0.28469217 0.1600125
000010 56 6b 03 be 21 04 48 bc 4e db 92 be 8a a5 82 3e
       -0.12833914 -0.012208016 -0.2868294 0.2551692
000020 cb a4 80 be 18 53 37 3e 2f 12 a2 be 6e 4a 23 bd
       -0.25125727 0.17902792 -0.31654498 -0.039865904
000030 d1 c8 d9 be 31 ee 12 bf 5a f0 0a 3e c4 53 f1 be
       -0.42536023 -0.573947 0.1356825 -0.4713422
000040 dc 72 cb 3c 0b 4e 04 bf 3f 80 ff be 3d d3 d1 be
       0.024835043 -0.51681584 -0.49902532 -0.40981475
000050 51 7d 0a 3e ea 96 b1 3e 74 e0 2f 3f ef f7 05 3f
       0.13524367 0.3468545 0.68701863 0.5233144
000060 05 da d4 be 0f 6e d2 3e 92 29 d2 3d 57 8d 8a 3e
       -0.41572586 0.41099593 0.10261835 0.2706096
000070 f9 3f 67 3e d1 09 f3 3c 36 57 0b 3e 93 51 4a be
       0.22582997 0.029667767 0.13607487 -0.1975768
000080 f2 b9 04 3e bf b4 19 be ea cd 43 3d f5 7b 96 3e
       0.12961558 -0.15010355 0.047803797 0.29391447
000090 da ae cd 3c df 0e 31 bc fd 2d da 3d c0 f7 a8 3d
       0.02510779 -0.010806768 0.10653303 0.082503796
0000a0 bf eb f1 be 99 29 8e be 21 91 08 bd 2c a2 ff be
       -0.47250172 -0.27766111 -0.03334153 -0.49928415
0000b0 dc 8d 35 bd fc fa fe be ee 6e 36 be b2 37 d3 bc
       -0.04432474 -0.4980086 -0.17815754 -0.025783394
0000c0 e5 e5 a6 be 71 12 f4 bb 29 83 26 be 99 6b 92 3e
       -0.3259727 -0.0074484874 -0.16260971 0.28597715
0000d0 a1 d6 84 ba fd 75 d0 bc 85 cb 86 3d 6f b0 17 bd
       -0.0010134765 -0.025446886 0.06581787 -0.037033495
0000e0 44 df 0d 3e b8 86 95 3e ea 54 81 be 36 b3 6f 3e
       0.138547 0.29204345 -0.25260097 0.23408207
0000f0 75 f0 df bd 03 62 ad be 67 f3 e3 be 4c ad 63 be
       -0.109345354 -0.3386384 -0.4452164 -0.22234076
000100 3c 53 fa 3e 37 68 ba 3e 74 0e 7c 3e 02 ca a1 be
       0.48891628 0.36407635 0.24614888 -0.31599432
000110 ba 98 a7 3e 1e ac 0c be 34 a3 65 bf f7 03 22 be
       0.3273371 -0.13737532 -0.89702153 -0.15821825
000120 a7 c3 25 bc df c1 9a 3d e9 aa 2a be 5c bd 6d bf
       -0.010117448 0.07556509 -0.1666676 -0.92867064
000130 57 fc 33 bf e2 28 97 be 00 ea ac be 75 a4 2c be
       -0.70306915 -0.2952338 -0.33772278 -0.1685961
000140 ba d2 9b 3c 92 75 ec 3d 89 5d 8b 3c 8a 2a d1 be
       0.01902138 0.11545862 0.017012374 -0.40852767
000150 3d 51 80 bd c9 e8 bd be f1 2c d8 bd 98 50 2e 3e
       -0.06265495 -0.37091663 -0.10555447 0.17022932
000160 a3 4f f4 be 7f 3b 0f bf 76 33 08 3f 5b 01 86 3e
       -0.47717008 -0.5595016 0.53203523 0.2617291
000170 5a 09 fd 3e 2e 2b 46 3f bd 9f ca bb fa bd 19 3f
       0.49421197 0.77409637 -0.006183593 0.60055506
000180 0f ed 18 bf 51 19 28 3f a6 49 ca 3e 2b fb 1a 3f
       -0.5973672 0.6566363 0.39509314 0.605395
000190 6a 43 29 be 82 d6 91 bd fb bb 93 bb 04 ae 3b be
       -0.16529623 -0.07120992 -0.004508493 -0.183281
0001a0 60 50 27 bf e2 25 dc bd 62 20 13 be 45 a6 3a be
       -0.6535702 -0.10749413 -0.14367822 -0.1822749
0001b0 8c a0 cc bd d0 dc 08 bf 9f a2 b0 3e 4c 25 f4 be
       -0.099915594 -0.53461933 0.3449907 -0.47684705
0001c0 6c 31 5f be 0b 93 03 3f e0 36 32 bf 9b 02 5c 3f
       -0.21796197 0.51396245 -0.6961498 0.85941476
0001d0 35 fb a5 bd 7b 41 17 3f 27 c7 09 3d bf cc 90 3e
       -0.081045546 0.5908429 0.033637192 0.2828121
0001e0 63 c0 7a 3f 35 dd 84 3f f8 ab 31 3f 02 22 03 3f
       0.9794981 1.0380007 0.6940303 0.51223767
0001f0 31 b2 e7 3f 58 f7 8a bc 29 94 35 bf c7 a6 51 3f
       1.8101255 -0.016963646 -0.709292 0.8189511
000200 ea 94 02 c0 be 65 4e be 23 55 03 be 56 54 8d bd
       -2.040339 -0.20155999 -0.12825446 -0.069008514
000210 58 65 a0 bd d2 48 eb ba 7f fa 86 3e fb 88 6e bd
       -0.0783183 -0.0017950779 0.26362988 -0.058236104
000220 12 af b4 be 64 0d 0b bd 29 d7 a1 bc fc 53 63 3e
       -0.35289818 -0.033948317 -0.019755917 0.22200006
000230 ee da 94 bf 9e 0c 9b be 82 3f 08 bf 6d bc c5 be
       -1.1629312 -0.30283064 -0.53221905 -0.3862032
000240 a0 19 d7 be 37 25 9f be 89 f5 0f bf 5c 65 02 bf
       -0.42011738 -0.3108308 -0.5623403 -0.5093591
000250 72 d4 cf be e4 5d c9 be a5 2c b2 3e 03 b5 bd 3e
       -0.4059177 -0.39329445 0.34799686 0.37052163
000260 da 02 9b 3e 39 6d 84 3d 21 60 be 3e c6 f6 ad 3e
       0.30275613 0.06466145 0.37182716 0.33977336
000270 e0 d5 20 3f 52 14 c2 3e dd b5 05 3d fb a2 c0 3d
       0.6282635 0.37906128 0.03264414 0.09406086
000280 b1 de 52 be 9c d0 ee bd 5f ed 86 3d ae be e7 bd
       -0.20592763 -0.11660883 0.06588244 -0.11315666
000290 0c 88 f1 bc 97 7b a9 be fd 7d c4 3d ba 6c 9f ba
       -0.029483818 -0.33102104 0.09594343 -0.001216314
0002a0 9a f7 95 be e1 87 59 be ba 36 aa bd 58 4e 52 3f
       -0.29290468 -0.2124324 -0.083112195 0.82150793
0002b0 64 29 b7 bd d8 f7 2a 3f b2 ca 2a 3f 90 a3 0b 3e
       -0.089434415 0.6678443 0.6671554 0.13636613
0002c0 aa 63 a7 3e e2 34 36 3f 5b df 18 be c3 3f 90 3e
       0.32693225 0.7117444 -0.14928953 0.28173646
0002d0 99 86 10 bc a8 c6 99 3e 81 24 8f 3e 91 14 89 bc
       -0.008821153 0.30034375 0.27957538 -0.01673344
0002e0 18 8a ac be 79 10 20 3e 79 31 db 3d 0e a3 5c be
       -0.33699107 0.15631284 0.107027955 -0.21546575
0002f0 c2 f6 5e 3e b1 c4 60 3e c8 f4 2d bf cc df 4c bf
       0.21773818 0.21950032 -0.6795163 -0.80028987
000300 5c db d9 be 0f 1e ea be c2 a1 ba be 13 1e 26 bf
       -0.4255017 -0.45726058 -0.36451536 -0.6488964
000310 7d 4f 01 bf 28 1e 04 bf eb 10 1c be 6a d6 93 be
       -0.50511914 -0.51608515 -0.15240829 -0.28874522
000320 dc c2 1d be 94 db 9b 3d 15 68 83 3d 6c 73 af bd
       -0.15406364 0.076102406 0.064163364 -0.08566937
000330 e4 eb c9 bd 1d 93 1b 3d 8b da 0e bf b8 4f 76 3b
       -0.09859446 0.037982095 -0.5580222 0.0037584137
000340 4f 4a d9 3d 3e a2 5b be b5 fb 45 bf 44 c7 c3 bf
       0.10609876 -0.21448609 -0.773372 -1.5295186
000350 c9 b7 69 3e d0 b0 51 3e d3 54 05 3f 79 c1 18 3f
       0.22824015 0.20477605 0.52082556 0.59670216
000360 29 eb 4c 3f 88 f6 88 3f 2d 33 00 3e 21 75 b7 bd
       0.80046326 1.0700235 0.12519522 -0.089578874
000370 35 29 15 3f a7 8e ee 3d e6 6d bb 3e 3c 9c 92 bb
       0.58266 0.116483025 0.36607283 -0.004474191
000380 96 5b c8 3e 74 47 f1 3d 5c 0b 1a 3f c1 46 bd bd
       0.39132375 0.11781207 0.60173583 -0.09242011
000390 28 2a 4f 3e f1 8c 89 3d d0 01 98 3d 70 4a 4b 3e
       0.20230925 0.067163356 0.07422221 0.19852614
0003a0 11 cd 8c bd 46 eb a3 3c 8c f5 d9 3d b3 a8 a8 3c
       -0.06875051 0.020009648 0.106425375 0.020588255
0003b0 eb 82 7f bd 21 a0 8a 3e 3a ce 04 3d da c2 f4 3d
       -0.062380712 0.27075294 0.032423235 0.119512275
0003c0 c3 49 ae bd a2 ed 65 3d 59 72 c8 3d 8c 6b 90 3e
       -0.08510163 0.056134827 0.09787435 0.28207052
0003d0 ea 4a b8 3e f2 98 90 3d 06 63 a7 3e 5e dd e5 3e
       0.35994655 0.07060422 0.32692736 0.44895452
0003e0 b1 42 2f 3e 76 b5 a6 3d 46 8a 25 be 9c 69 d1 be
       0.17115285 0.0814008 -0.16166028 -0.40900886
0003f0 de 65 b9 be f3 12 45 be d2 ad 96 be 88 7c 45 be
       -0.3621053 -0.1924551 -0.2942949 -0.19285786

b2 f4 [10]
000000 6c 3d 8a be 59 85 6b 3e 3e 90 42 3e c4 5a 4f 3f
       -0.26999986 0.23000087 0.19000337 0.8099787
000010 05 00 80 be 40 ce 4c 3d b3 f5 a8 be 54 e2 3a bf
       -0.25000015 0.050001383 -0.32999954 -0.730016
000020 93 52 38 3e 36 c5 f5 3d
       0.1800025 0.120005056

z1 f4 [100, 64]
000000 81 58 82 c0 78 00 cc 40 f4 fb 83 c0 64 af 80 c0
       -4.0733037 6.375057 -4.124506 -4.02141
000010 8e a4 a2 c1 54 4b d8 c0 9d 01 66 c1 cf 68 b6 c1
       -20.330349 -6.7591953 -14.375394 -22.801176
000020 3a 6d 7d c1 ce cd a8 bf ed a5 44 c0 a7 43 18 c1
       -15.839167 -1.3187807 -3.0726273 -9.516517
000030 82 3d a7 c1 7c ea 2b 40 f5 ab 3d c0 aa 11 da c0
       -20.905033 2.6861868 -2.9636204 -6.8146563
000040 27 c6 ab c0 41 ac 38 41 a5 fe 3c c0 ee fa f3 40
       -5.3679385 11.542054 -2.9530423 7.624381
000050 77 78 2d c1 ef 52 bc c1 20 9c 52 bd 4e d5 15 c1
       -10.84191 -23.540495 -0.051418424 -9.364576
000060 45 76 ed c0 5d b8 29 41 eb 72 ea c0 a4 52 d6 c0
       -7.420687 10.607511 -7.326528 -6.697588
000070 67 d6 85 41 c6 a8 10 c0 e4 97 22 c1 6c 22 12 c1
       16.729689 -2.260301 -10.162083 -9.133404
000080 03 f9 1e 41 c6 15 4e c1 b6 5f 35 c1 76 27 73 c1
       9.935794 -12.880316 -11.335867 -15.197134
000090 fa 16 9b 41 d6 e4 53 c0 55 d5 4c c1 9b 9d 6b c1
       19.386219 -3.310842 -12.802083 -14.725978
0000a0 c2 0f 93 c0 d7 b1 4d 40 39 db 3c c1 5a b3 c4 c0
       -4.5956736 3.2139795 -11.803521 -6.1468935
0000b0 cc 17 0d c1 52 af 1b c1 8d 61 a1 41 0a 31 44 c1
       -8.81831 -9.730303 20.172632 -12.261972
0000c0 35 37 f1 c0 7d ed 4e c1 b5 94 7e c1 4e 36 b9 40
       -7.537989 -12.932981 -15.911305 5.787879
0000d0 00 e4 91 c0 47 a1 67 c1 1d 3d 72 c1 bc f1 1a 41
       -4.559082 -14.476874 -15.13992 9.684017
0000e0 05 f3 b3 c1 5c 87 88 c1 c2 88 fd c0 9c ec 18 c1
       -22.493662 -17.066093 -7.922944 -9.557766
0000f0 c1 3d d8 40 2a ba 68 c0 52 15 88 41 b3 d5 29 c1
       6.7575383 -3.6363626 17.01041 -10.614673
000100 7a 73 e8 c1 c7 73 ee bf 76 d0 1f c1 de f5 b5 c0
       -29.056385 -1.8629082 -9.988394 -5.686263
000110 1c c9 46 c0 03 32 75 c0 0f ea 2b c0 e1 07 fc c1
       -3.1060247 -3.8311775 -2.6861608 -31.503847
000120 e1 98 19 c1 24 ab 3d c1 9c 12 65 c0 77 7a b7 c1
       -9.599824 -11.854282 -3.5792608 -22.934797
000130 f5 04 f3 c1 11 56 50 41 31 53 27 c0 6a fb 1d c0
       -30.37742 13.021012 -2.6144526 -2.46847
000140 70 97 05 c1 48 18 e0 41 09 0b 80 c0 8a 7c 0a 41
       -8.349472 28.011856 -4.001347 8.655405
000150 03 18 9a c1 42 55 6a c1 2a cb 1e c1 48 8c 9f c1
       -19.261724 -14.645815 -9.924601 -19.943497
000160 80 af 84 c1 91 f9 5e 41 18 6f 41 c0 b5 23 0d c1
       -16.585693 13.935929 -3.0224056 -8.821218
000170 2c cf 03 40 d0 ac 96 40 92 5a 4a c1 aa 41 1e c1
       2.0595198 4.7085953 -12.647112 -9.891031
000180 63 86 9d 40 76 c5 91 c1 8b 8e 09 c1 7f 1b a1 c1
       4.9226546 -18.221416 -8.597301 -20.138426
000190 c8 d8 90 41 10 cb 59 c1 9d 61 b2 c1 ae 75 45 c1
       18.10585 -13.612076 -22.297663 -12.34123
0001a0 27 82 27 41 78 35 8c 40 26 bc 41 c1 9e 7a e8 be
       10.469275 4.381527 -12.108435 -0.4540605
0001b0 86 38 15 3f 31 de 20 c1 e2 3c ea 41 bd 55 43 c1
       0.5828937 -10.054246 29.279728 -12.208432
0001c0 d6 d0 4d c1 e7 52 aa c1 5c 2e 83 c1 e4 d1 55 41
       -12.863485 -21.29048 -16.397636 13.363743
0001d0 fd ed 5c c0 71 43 2a c1 52 98 15 c1 a3 6b 9f c0
       -3.4520257 -10.641465 -9.349688 -4.9818892
0001e0 f9 a0 a8 c1 92 8b d6 40 aa e0 d3 c0 7c 4a c8 c1
       -21.0786 6.7045374 -6.621175 -25.03637
0001f0 9d 51 00 c1 dc 5e 66 c1 1b 50 6c 41 5f d1 b1 c1
       -8.019925 -14.398159 14.769557 -22.227232
000200 9e 4a 73 40 1a b8 34 bf 2c d0 81 c1 1e 8a 7a 41
       3.8014293 -0.70593417 -16.226646 15.65872
000210 4a e3 5c c0 5a 26 59 40 84 1d 34 c1 f5 84 3f c1
       -3.4513726 3.3929658 -11.257206 -11.96996
000220 80 8e 66 c1 61 1a a9 c1 78 b1 f4 c0 bb 1f 97 c0
       -14.40979 -21.13788 -7.6466637 -4.7226233
000230 5a 7d 94 c1 c9 3a 20 41 f7 cf 3b c1 7a ab e6 40
       -18.561207 10.014352 -11.738273 7.208432
000240 cf 1e b3 c1 d6 63 36 41 e5 9a b0 c0 82 64 ca bf
       -22.390043 11.399374 -5.518908 -1.5811923
000250 61 84 5f 40 ce 84 9c c1 76 fb d4 40 18 7d 9a c1
       3.4924548 -19.564846 6.655696 -19.31108
000260 f0 27 3e c1 a8 bd 82 41 b2 c4 86 bf 9c 02 f7 c0
       -11.88475 16.342606 -1.0528777 -7.7190685
000270 29 31 39 3e ea 11 dc 40 70 e8 72 3f 73 f0 87 c1
       0.1808516 6.877187 0.9488592 -16.992407
000280 5c 2d 09 c0 da 99 db c1 77 ee 9b c1 83 1a eb c1
       -2.1433935 -27.450123 -19.491438 -29.387945
000290 10 d2 a1 41 04 ca c8 c1 67 ab 87 c0 41 8f bd c1
       20.22757 -25.09864 -4.239673 -23.694948
0002a0 cb f8 85 40 23 9d 14 c1 f3 6d 8b 41 cf 8d 87 c0
       4.18662 -9.288363 17.428686 -4.2360606
0002b0 44 3d 28 41 bc c5 02 c0 cb 65 c8 41 6a 08 1d bf
       10.514957 -2.0433187 25.049704 -0.61340964
0002c0 22 9c 14 c1 d7 61 8c c1 1e 68 1e c1 2c d8 a6 40
       -9.288118 -17.547773 -9.900419 5.213888
0002d0 f6 94 8a 40 89 59 34 c1 0f 51 c6 c0 c3 d6 06 c1
       4.3306837 -11.271859 -6.197395 -8.427432
0002e0 a4 7a 6b c1 a1 30 96 c1 21 58 c4 41 5c c6 f7 c1
       -14.717442 -18.773745 24.543032 -30.971855
0002f0 38 7c d1 40 6a 20 4b 41 eb 04 89 40 ad 08 12 c2
       6.5464134 12.695414 4.2818503 -36.508472
000300 8c 35 fb bd 96 a7 a2 40 cf 74 03 c1 d4 0e c2 c0
       -0.12266073 5.0829573 -8.216018 -6.06431
000310 76 b6 4b c1 13 ac e2 bf 2d d9 30 c0 94 21 f1 c1
       -12.732046 -1.7708763 -2.7632554 -30.141396
000320 e1 12 16 c1 07 ba 9a c0 46 0b a8 c0 04 3c 34 c1
       -9.379609 -4.8352084 -5.251376 -11.264652
000330 a7 bf 16 c1 c2 9b dc 3f fc c1 b9 c0 d4 c6 5e c1
       -9.42179 1.7235034 -5.8049297 -13.923542
000340 ba 57 45 41 f7 67 5a 41 6e e1 16 c1 63 8b 85 41
       12.333918 13.650382 -9.430037 16.69306
000350 d9 43 a2 c0 97 ef 21 c1 20 ee eb 3f 3f 50 01 41
       -5.070782 -10.120994 1.8432045 8.082091
000360 6d 18 9e c0 52 47 e9 40 b8 33 c8 c0 4c b5 09 c1
       -4.9404817 7.289956 -6.2563133 -8.606762
000370 c4 ca 0c 41 32 8a 2a c0 2d 4a 8d c1 9d 11 33 c1
       8.799503 -2.6646848 -17.661219 -11.1918
000380 e7 df d1 41 f5 7b 8a c0 9b 61 6e c1 dd 1a 10 c1
       26.234327 -4.3276315 -14.898829 -9.006558
000390 5d c7 82 41 a0 d7 16 c1 e9 c5 34 c1 70 b6 c6 c0
       16.347345 -9.427643 -11.298318 -6.20977
0003a0 13 bd ef c0 6a 18 ae 40 ec 6e 95 c1 2b e7 ba c0
       -7.4918303 5.44048 -18.679161 -5.8407187
0003b0 e1 af 9c c1 a6 1f 57 40 f9 44 b0 41 f0 1b 02 c1
       -19.585878 3.3613067 22.033678 -8.131821
0003c0 e2 b1 6f 40 4b 8c 9e c0 8d ae 14 c1 df fe e7 40
       3.745232 -4.9546256 -9.292615 7.249862
0003d0 4f 02 23 c1 da 8f 1e c1 4b 9e 9c c1 e6 cc 2d 41
       -10.188064 -9.91012 -19.577291 10.862524
0003e0 7c f8 66 c1 f7 b1 b1 c1 e0 2e 86 c1 df 40 e8 3f
       -14.435665 -22.211897 -16.772888 1.8144797
0003f0 dc 83 79 c0 0d b8 0d c1 f4 c0 d6 41 a8 d5 68 40
       -3.898673 -8.857434 26.844215 3.6380405

h f4 [100, 64]
000000 59 1a 89 3c 8d 90 7f 3f 58 5e 82 3c e4 46 90 3c
       0.016736196 0.9982994 0.015914127 0.017611928
000010 71 96 cb 30 7a e3 97 3a bf 59 19 35 4a a6 09 2f
       1.4812952e-09 0.0011588179 5.712754e-07 1.2519155e-10
000020 fb ea 0d 34 f3 15 58 3e 19 40 35 3d 93 64 9a 38
       1.3217134e-07 0.21102123 0.04425058 7.362026e-05
000030 22 31 65 30 3d ab 6f 3f a0 19 49 3d fa b3 8f 3a
       8.3379537e-10 0.93620664 0.049096704 0.0010963671
000040 a4 1c 98 3b 5e ff 7f 3f f3 21 4b 3d 02 e0 7f 3f
       0.004642086 0.99999034 0.049592923 0.99951184
000050 ba 18 a4 37 45 70 83 2e 7d 6b f9 3e a3 b9 b3 38
       1.9561838e-05 5.9771334e-11 0.4871482 8.569963e-05
000060 8d dc 1c 3a 62 fe 7f 3f c9 56 2c 3a 46 87 a1 3a
       0.00059837924 0.9999753 0.00065742113 0.001232364
000070 00 00 80 3f a9 76 c1 3d 1d ec 21 38 62 76 e2 38
       1.0 0.09446461 3.860529e-05 0.0001079857
000080 d4 fc 7f 3f 35 f9 2a 36 74 44 48 37 99 d8 86 34
       0.9999516 2.5477032e-06 1.1936867e-05 2.511704e-07
000090 00 00 80 3f 0a 2f 10 3d e3 e2 38 36 a4 00 d8 34
       1.0 0.03520111 2.7550202e-06 4.02336e-07
0000a0 0e c0 23 3c 7e 1b 76 3f 99 ec fa 36 93 f4 0b 3b
       0.00999452 0.961357 7.478124e-06 0.0021355494
0000b0 1d 2a 1b 39 c3 5a 79 38 00 00 80 3f 79 a6 9e 36
       0.0001479764 5.9450755e-05 1.0 4.728147e-06
0000c0 42 82 0b 3a c4 33 22 36 69 0a 04 34 c7 37 7f 3f
       0.0005321839 2.4170013e-06 1.2297245e-07 0.99694484
0000d0 32 ca 29 3c 54 8d 0a 35 3e c9 8e 34 ec fb 7f 3f
       0.0103631485 5.1614666e-07 2.6595984e-07 0.9999378
0000e0 7e 35 3b 2f d8 6f 26 33 09 e6 bd 39 7f 27 94 38
       1.7026555e-10 3.8751608e-08 0.0003622028 7.064547e-05
0000f0 ef b3 7f 3f 46 4d d2 3c 00 00 80 3f 13 f6 cd 37
       0.9988393 0.025671612 1.0 2.4552492e-05
000100 50 58 87 2a d4 96 09 3e 9c a2 40 38 09 90 5d 3b
       2.4042096e-13 0.13436443 4.592781e-05 0.0033807775
000110 5d 8d 2f 3d a3 dd ad 3c eb a6 82 3d 65 58 bb 28
       0.042859424 0.021223849 0.06379493 2.0799506e-14
000120 87 0d 8e 38 43 81 ee 36 15 53 de 3c 79 dd f0 2e
       6.773607e-05 7.108001e-06 0.027139226 1.0953278e-10
000130 d6 78 90 29 da ff 7f 3f cf b3 8b 3d 03 f2 9f 3d
       6.415846e-14 0.99999774 0.06821405 0.07809832
000140 b5 f3 77 39 00 00 80 3f f4 25 93 3c 97 f4 7f 3f
       0.00023646544 1.0 0.017962433 0.9998259
000150 0c 2e 94 31 e5 07 ea 34 e7 52 4d 38 01 e0 15 31
       4.312602e-09 4.359164e-07 4.8953018e-05 2.1809685e-09
000160 80 8a 86 33 f2 ff 7f 3f f3 26 3e 3d cb b6 1a 39
       6.265054e-08 0.99999917 0.046423864 0.0001475468
000170 46 0c 63 3f 50 b6 7d 3f aa e0 57 36 43 55 54 38
       0.886906 0.9910631 3.2168268e-06 5.0624145e-05
000180 5d 26 7e 3f 5a ae 51 32 f8 88 41 39 87 a9 f6 30
       0.9927729 1.2205044e-08 0.00018456939 1.7947038e-09
000190 00 00 80 3f 6c 7f a4 35 98 be 63 2f bb 8f 92 36
       1.0 1.2256037e-06 2.0713242e-10 4.3678715e-06
0001a0 24 fe 7f 3f 84 d6 7c 3f 7c fa b8 36 d0 db c6 3e
       0.9999716 0.98764825 5.5127875e-06 0.3883958
0001b0 9d 48 24 3f e4 5b 34 38 00 00 80 3f 3d 60 a7 36
       0.641733 4.3000924e-05 1.0 4.9881914e-06
0001c0 19 e0 2d 36 59 e2 1b 30 bc 60 a2 33 e6 ff 7f 3f
       2.590945e-06 5.671033e-10 7.561309e-08 0.99999845
0001d0 68 90 fb 3c 32 84 c8 37 bb 6b b6 38 c7 4a df 3b
       0.030708507 2.3903416e-05 8.698503e-05 0.006814334
0001e0 36 ac 40 30 cb af 7f 3f 8b 56 ae 3a dc 97 6b 2d
       7.009392e-10 0.99877614 0.0013300938 1.3391923e-11
0001f0 45 5a ac 39 22 e6 15 35 fa ff 7f 3f f4 5c 74 2f
       0.00032873653 5.584171e-07 0.99999964 2.2224694e-10
000200 fd 67 7a 3f 04 37 a9 3e 6c a8 c0 33 fe ff 7f 3f
       0.97814924 0.33049786 8.9713325e-08 0.9999999
000210 30 b9 fb 3c 07 ad 77 3f 15 a8 58 37 8b 73 d4 36
       0.030727953 0.96748394 1.2913738e-05 6.3315433e-06
000220 64 2a 14 35 3c 95 35 30 7b 4c fa 39 4e 66 10 3c
       5.5195983e-07 6.605949e-10 0.00047740698 0.008813454
000230 ac 46 15 32 12 fd 7f 3f d5 eb 05 37 85 cf 7f 3f
       8.68901e-09 0.9999553 7.982327e-06 0.99926025
000240 df a5 4f 2f 44 ff 7f 3f d6 e1 82 3b c4 b8 2e 3e
       1.888547e-10 0.9999888 0.003994207 0.1706267
000250 df 70 78 3f 4a dd 5a 31 ca ab 7f 3f 36 0b 8d 31
       0.9704723 3.1848963e-09 0.99871504 4.1049146e-09
000260 09 59 e7 36 fe ff 7f 3f c6 70 84 3e ff d2 e8 39
       6.8947015e-06 0.9999999 0.2586729 0.00044407693
000270 06 8b 0b 3f 80 bc 7f 3f f7 8b 38 3f 0b 2a 33 33
       0.5450901 0.99897003 0.7208857 4.1714923e-08
000280 20 f0 d6 3d 11 a5 a8 2b 06 89 6b 31 52 4d 42 2a
       0.10495019 1.1982933e-12 3.427489e-09 1.7257487e-13
000290 00 00 80 3f b9 5e 5d 2d bc c6 68 3c 4c 41 61 2e
       1.0 1.2583428e-11 0.014207538 5.1217072e-11
0002a0 ed 2a 7c 3f e9 f4 c1 38 00 00 80 3f 53 9b 69 3c
       0.98503 9.248575e-05 1.0 0.014258224
0002b0 38 fe 7f 3f 28 f7 ea 3d 00 00 80 3f 35 db b3 3e
       0.9999728 0.114729226 1.0 0.3512818
0002c0 15 01 c2 38 8d a1 cd 32 5f 59 52 38 62 9d 7e 3f
       9.2508424e-05 2.3938606e-08 5.0151135e-05 0.994589
0002d0 d7 ac 7c 3f 4a 81 55 37 b1 13 05 3b 29 5c 65 39
       0.9870123 1.2725892e-05 0.0020305926 0.00021873474
0002e0 b0 da d9 34 65 63 f1 31 00 00 80 3f f8 75 1f 29
       4.0578516e-07 7.025323e-09 1.0 3.5407414e-14
0002f0 13 a2 7f 3f cc ff 7f 3f d3 82 7c 3f e9 d4 20 25
       0.9985668 0.9999969 0.9863712 1.3949925e-16
000300 b0 51 f0 3e 15 6c 7e 3f d0 ab 8d 39 e0 f9 17 3b
       0.46937323 0.9938367 0.00027021626 0.0023189709
000310 a0 4c 46 36 7d ec 14 3e 02 11 73 3d 69 ee b6 29
       2.95489e-06 0.14543338 0.05934239 8.123781e-14
000320 37 0b b1 38 35 25 01 3c ae d1 aa 3b 9e 0c 57 37
       8.4421066e-05 0.007882406 0.005212984 1.2817936e-05
000330 59 bb a9 38 83 3c 59 3f 56 d8 44 3b 81 f2 70 35
       8.093444e-05 0.8485796 0.0030036173 8.9759857e-07
000340 b6 ff 7f 3f ec ff 7f 3f 88 56 a8 38 00 00 80 3f
       0.9999956 0.9999988 8.026982e-05 1.0
000350 0c 6b cc 3b c0 b6 28 38 03 03 5d 3f c2 eb 7f 3f
       0.006238347 4.022452e-05 0.8633272 0.9996911
000360 48 aa e8 3b 50 d3 7f 3f 64 f4 fa 3a 7f b6 3f 39
       0.007100377 0.9993181 0.001914632 0.00018283165
000370 1e f6 7f 3f bb 4d 85 3d e7 93 b7 32 f8 4c 67 37
       0.9998492 0.065089665 2.1371262e-08 1.3786594e-05
000380 00 00 80 3f 80 6e 55 3c fd b6 b5 34 fb 8a 00 39
       1.0 0.0130268335 3.384702e-07 0.00012258806
000390 fe ff 7f 3f ce bd a8 38 1c ee 4f 37 89 71 03 3b
       0.9999999 8.046218e-05 1.2393601e-05 0.0020056686
0003a0 7b 18 12 3a f8 e4 7e 3f c8 aa 04 32 e0 f1 3d 3b
       0.0005573106 0.9956813 7.722242e-09 0.002898328
0003b0 2c 4f 56 31 c9 6a 77 3f 00 00 80 3f c2 1c 9a 39
       3.1186103e-09 0.96647316 1.0 0.00029394595
0003c0 20 17 7a 3f 9f 6b e5 3b 47 22 c1 38 7c d1 7f 3f
       0.97691536 0.007001355 9.209342e-05 0.9992902
0003d0 0f c5 1d 38 8b 51 50 38 4d 28 58 31 be fe 7f 3f
       3.7615242e-05 4.9667007e-05 3.1455045e-09 0.9999808
0003e0 87 61 10 35 a9 23 78 2f 1c 25 5f 33 91 22 5c 3f
       5.37861e-07 2.2568138e-10 5.1954984e-08 0.85990244
0003f0 4a be a2 3c 3b 36 15 39 00 00 80 3f 55 70 79 3f
       0.019866128 0.0001422995 1.0 0.9743703

z2 f4 [100, 10]
000000 98 e0 1f c0 13 c1 f6 bf be 11 0c c0 24 1c fa bf
       -2.498083 -1.9277672 -2.188583 -1.9539838
000010 7c a9 a2 bf ad 8a 16 c0 de c9 11 c0 c7 99 3a c0
       -1.2707973 -2.352214 -2.277946 -2.9156358
000020 e4 a2 2b bf 36 6e 02 c0 ee 25 44 c0 b4 59 50 c0
       -0.67045426 -2.0379767 -3.064815 -3.255475
000030 2d 51 3f c0 c6 99 08 c0 ec 38 ef bf 45 75 11 c0
       -2.9893296 -2.1343856 -1.8689246 -2.2727826
000040 88 a9 49 c0 0a 71 16 c0 a0 bc f9 bf 1d af da bf
       -3.1509724 -2.3506494 -1.9510689 -1.708469
000050 58 2a 57 be c8 8c 11 c0 74 09 57 bf 74 aa d0 bf
       -0.21012247 -2.2742176 -0.839988 -1.6302018
000060 51 f8 88 bf 5f e6 45 bf af cc d3 bf 3e e7 a9 bf
       -1.070078 -0.77304643 -1.654684 -1.3273695
000070 31 68 b9 bf 98 7a 04 c0 ac 4f 55 c0 b6 f2 bc be
       -1.4484922 -2.0699825 -3.3329878 -0.36903924
000080 44 52 cb bf ec e4 14 c0 0f 03 a8 bf a9 62 20 c0
       -1.588448 -2.3264723 -1.3125933 -2.5060217
000090 bb 99 80 c0 ad 52 9c bf 7d 42 af bf df 72 d3 bf
       -4.018766 -1.2212731 -1.3692166 -1.6519431
0000a0 5c e5 30 c0 be 05 81 c0 da 77 db bf 01 24 4d c0
       -2.763999 -4.031951 -1.7145951 -3.2053225
0000b0 3e 01 3d c0 fc af 41 c0 d3 a9 65 c0 5a f1 85 c0
       -2.9532008 -3.0263662 -3.5884902 -4.185712
0000c0 f6 75 40 c0 8e 90 92 c0 8d d9 fa bf cb c6 f9 bf
       -3.0071998 -4.580146 -1.9597641 -1.9513792
0000d0 74 79 80 be 58 50 61 3e 73 56 d0 bf 6b c1 b8 bf
       -0.2509266 0.22003305 -1.6276382 -1.4434026
0000e0 3e 15 58 c0 52 77 87 3e 04 40 10 bf e0 c8 03 3b
       -3.3762965 0.26458222 -0.5634768 0.0020108745
0000f0 42 cb 39 c0 d9 ba 84 c0 72 e1 17 c0 d9 cd 3b c0
       -2.9030309 -4.1478086 -2.373135 -2.934439
000100 41 9e 8f bf 4e 1b 2f c0 db 13 12 c0 f4 de 75 c0
       -1.122017 -2.7360415 -2.282462 -3.841733
000110 b4 cb 05 c0 ab de 32 c0 f7 41 a9 bf 91 88 1a c0
       -2.090558 -2.7948406 -1.3223256 -2.4145854
000120 6b 53 35 c0 b2 dc 80 c0 c9 b6 08 c0 16 f3 1b 3f
       -2.8332164 -4.0269403 -2.1361563 0.60917795
000130 3a a0 c4 bf 62 67 61 c0 9f 66 7d bf 13 a0 55 c0
       -1.5361397 -3.521935 -0.9898471 -3.3378952
000140 82 a2 43 c0 03 1f 57 c0 7f 47 11 c0 34 b9 8d c0
       -3.0567937 -3.3612678 -2.2699888 -4.428858
000150 e8 48 2d c0 0c 00 5f c0 87 a8 d2 bf 0f 1f 6c c0
       -2.7075748 -3.4843779 -1.645768 -3.6893957
000160 b5 ba 3b c0 57 8c 8c c0 77 34 b1 bf 57 c6 e1 bf
       -2.9332707 -4.3921313 -1.3844136 -1.7638654
000170 11 86 8f bf fa a9 b1 bf bd 7a ce bf de b0 b1 bf
       -1.1212789 -1.3879998 -1.6131207 -1.38821
000180 87 68 56 c0 26 02 2e 3f 78 b2 cd bf db df 65 bf
       -3.3501298 0.6797203 -1.6070089 -0.897947
000190 23 0e 8c c0 0a c0 23 c0 32 65 72 c0 04 e1 2d c0
       -4.3767257 -2.5585961 -3.7874265 -2.7168589
0001a0 57 c2 3c c0 6a 65 27 c0 18 89 60 c0 ac 40 4a c0
       -2.9493616 -2.6155648 -3.5083675 -3.1601973
0001b0 44 1a f9 bf 7d b1 35 c0 a3 11 a3 3f d4 74 3c c0
       -1.9461141 -2.838958 1.2739757 -2.9446306
0001c0 80 85 93 be 1e 79 ab bf aa b3 df bf 30 67 28 bf
       -0.2881279 -1.3396337 -1.7476704 -0.6578245
0001d0 7a db 57 bf 7c 5e bd bf 0f c5 99 bf 85 b1 09 c0
       -0.8431927 -1.4794459 -1.2013263 -2.15146
0001e0 01 f5 8b c0 f1 cd 95 3e 66 c4 6f bf 26 bd d2 bf
       -4.3736577 0.29258683 -0.93659055 -1.6463974
0001f0 90 48 1f c0 31 24 b7 bf ee b6 5c c0 5a ab 00 c0
       -2.4888039 -1.430792 -3.4486651 -2.0104585
000200 5e eb 42 bf 32 c3 bd bf 12 05 5a c0 a4 45 6a c0
       -0.7614039 -1.4825194 -3.4065595 -3.6605005
000210 28 ec aa bf 7a 0e cd bf a6 78 62 c0 91 d3 37 c0
       -1.3353319 -1.6020043 -3.5386138 -2.872288
000220 e2 f8 7b c0 62 fb 47 c0 95 e8 d2 bf 3c e1 33 c0
       -3.9370656 -3.1247182 -1.6477228 -2.8106222
000230 de fe b5 bf d6 53 87 bf df 0a 9f be cf f0 6c 3f
       -1.4218404 -1.057246 -0.3106298 0.92554945
000240 1d 56 28 c0 ad 80 3f bf 42 a0 66 c0 97 6c 14 bf
       -2.630256 -0.7480572 -3.6035314 -0.57978195
000250 74 e4 02 bf 2f 9c 6d bf 4e 4f 86 c0 64 23 4e c0
       -0.5112984 -0.9281644 -4.1971807 -3.22091
000260 5a 14 fd bf a4 d2 23 c0 15 7d 9c 3e fd 57 43 c0
       -1.9771836 -2.5597315 0.3056418 -3.0522454
000270 f8 07 9f bf 28 4b 07 c0 2e 2b 13 c0 f7 a8 10 c0
       -1.2424307 -2.1139622 -2.2995105 -2.2603128
000280 3c 4c 86 bf 89 f1 f6 bf 9c dd 8a bf 10 04 66 bf
       -1.0492015 -1.9292461 -1.084888 -0.8984995
000290 6c ab b9 bf 9c a5 3e bf 91 8d 5f c0 d6 7a 0d 3f
       -1.4505439 -0.7447145 -3.4930155 0.5526556
0002a0 47 b0 52 bf c4 e7 ba be c6 00 6a c0 74 1e 4b c0
       -0.8230023 -0.36504948 -3.6562972 -3.1737337
0002b0 82 b5 1b c0 08 d1 31 c0 1b a7 2b c0 e5 4e 03 c0
       -2.4329534 -2.7783833 -2.6820743 -2.0516903
0002c0 fa ee 33 c0 25 64 65 c0 9f f6 06 bf 16 3e 2b c0
       -2.811461 -3.5842373 -0.52720064 -2.6756644
0002d0 eb 5f 92 bf 69 17 3a c0 cf d5 9d bf 56 fe d7 bf
       -1.1435522 -2.9076788 -1.2330874 -1.6874492
0002e0 c2 67 05 3f 12 7e 04 bf 4e 95 a6 bf f3 d4 05 bf
       0.52111447 -0.5175487 -1.3014314 -0.5227806
0002f0 8e ab 0b bf c0 52 08 3f a0 67 36 c0 75 b3 5e c0
       -0.54558647 0.53251266 -2.8500748 -3.4797032
000300 ed c7 41 c0 cf 70 3e c0 2f f2 05 c0 c8 b1 22 c0
       -3.0278275 -2.9756353 -2.0929067 -2.542101
000310 e8 1d 92 c0 5e 5c 70 bf 67 aa 46 c0 d8 ce d6 bf
       -4.5661507 -0.9389094 -3.1041505 -1.6781874
000320 1b 85 f1 bf bb 6e 17 c0 aa 93 9a bf 8e dc 6d bf
       -1.8868746 -2.3661335 -1.2076313 -0.92914665
000330 62 19 ef bf 80 64 ae bf e8 b3 4a c0 6d 57 df bf
       -1.8679621 -1.362442 -3.1672306 -1.7448555
000340 20 c2 12 bc b0 04 98 bf e2 4d 32 c0 9f 79 66 c0
       -0.008957416 -1.187643 -2.7860036 -3.6011732
000350 5b 29 da bf 26 48 3a c0 30 2d 27 c0 79 bc 26 c0
       -1.7043871 -2.9106536 -2.612133 -2.6052535
000360 8d 24 08 c0 34 7b 89 c0 70 8e 0e c0 f6 01 88 c0
       -2.127231 -4.2962894 -2.2274437 -4.2502394
000370 93 ec 8c c0 30 41 42 c0 b1 6f 80 c0 f4 1c 47 c0
       -4.4038787 -3.0352287 -4.013634 -3.1111422
000380 58 33 ea bf a9 22 40 c0 23 d0 70 c0 2f 70 41 c0
       -1.8296919 -3.0021155 -3.7627037 -3.0224721
000390 a3 e4 38 c0 d6 47 30 c0 bc 95 35 c0 d0 a3 6e 3c
       -2.8889549 -2.7543845 -2.837264 0.014565423
0003a0 f3 6f be bf 58 b9 35 c0 85 9b f5 bf b9 49 17 c0
       -1.4877914 -2.8394375 -1.9188086 -2.3638747
0003b0 73 b2 50 c0 a6 eb dc bf c2 d0 92 bf d0 7e 14 c0
       -3.2608917 -1.7259414 -1.1469958 -2.32024
0003c0 32 2c 38 c0 ed 79 3b c0 ab 2c 42 c0 a3 86 19 c0
       -2.8776975 -2.9293168 -3.0339763 -2.3988426
0003d0 b7 9b c9 bf 95 97 1b c0 dc 5e 59 c0 db 79 fa bf
       -1.5750645 -2.4311268 -3.3964148 -1.9568437
0003e0 b8 19 22 c0 d7 76 b0 bf 98 62 c3 bf 99 20 df bf
       -2.5328197 -1.3786267 -1.5264463 -1.7431823
0003f0 03 8c a6 be 74 2c 48 3e 6b ec 0f c0 bb 7e 42 bf
       -0.32528695 0.19548208 -2.2488048 -0.75974625
